Creating model
---------------- trying to import iGEMM implementation for large-kernel conv
---------------- found no iGEMM. use original conv. follow https://github.com/AILab-CVC/UniRepLKNet to install it.
---------------- trying to import iGEMM implementation for large-kernel conv
---------------- found no iGEMM. use original conv. follow https://github.com/AILab-CVC/UniRepLKNet to install it.
ReID Head Type: <class 'models.resnet.Res5Head'>
ReID Head Attributes: Res5Head(
  (focalNet): FocalNetBlock(
    dim=256, input_resolution=196, mlp_ratio=4.0
    (norm1): LayerNorm((256,), eps=1e-05, elementwise_affine=True)
    (modulation): FocalModulation(
      dim=256
      (f): Linear(in_features=256, out_features=512, bias=True)
      (h): Conv2d(256, 256, kernel_size=(1, 1), stride=(1, 1))
      (act): GELU(approximate='none')
      (proj): Linear(in_features=512, out_features=256, bias=True)
      (proj_drop): Dropout(p=0.0, inplace=False)
      (focal_layers): ModuleList(
        (0): Sequential(
          (0): Conv2d(256, 256, kernel_size=(1, 1), stride=(1, 1), groups=256, bias=False)
          (1): GELU(approximate='none')
        )
        (1): Sequential(
          (0): Conv2d(256, 256, kernel_size=(3, 3), stride=(1, 1), padding=(1, 1), groups=256, bias=False)
          (1): GELU(approximate='none')
        )
        (2): Sequential(
          (0): Conv2d(256, 256, kernel_size=(5, 5), stride=(1, 1), padding=(2, 2), groups=256, bias=False)
          (1): GELU(approximate='none')
        )
      )
      (ms_layers): ModuleList(
        (0-2): 3 x MixShiftBlock(
          dim=256, input_resolution=196, shift_size=3, mlp_ratio=4
          (dwDConv_lr): Conv2d(256, 256, kernel_size=(1, 1), stride=(1, 1), groups=256, bias=False)
          (dwDConv_td): Conv2d(256, 256, kernel_size=(1, 1), stride=(1, 1), groups=256, bias=False)
          (drop_path): Identity()
        )
      )
    )
    (drop_path): Identity()
    (norm2): LayerNorm((256,), eps=1e-05, elementwise_affine=True)
    (mlp): Mlp(
      (fc1): Linear(in_features=256, out_features=1024, bias=True)
      (act): GELU(approximate='none')
      (fc2): Linear(in_features=1024, out_features=256, bias=True)
      (drop): Dropout(p=0.0, inplace=False)
    )
    (mbconv): MBConv(
      (main_path): Sequential(
        (0): BatchNorm2d(256, eps=1e-05, momentum=0.1, affine=True, track_running_stats=True)
        (1): DepthwiseSeparableConv(
          (conv_dw): Conv2d(256, 256, kernel_size=(3, 3), stride=(1, 1), padding=(1, 1), groups=256, bias=False)
          (bn1): BatchNormAct2d(
            256, eps=1e-05, momentum=0.1, affine=True, track_running_stats=True
            (drop): Identity()
            (act): GELU(approximate='none')
          )
          (se): Identity()
          (conv_pw): Conv2d(256, 256, kernel_size=(1, 1), stride=(1, 1), bias=False)
          (bn2): BatchNormAct2d(
            256, eps=1e-05, momentum=0.1, affine=True, track_running_stats=True
            (drop): Identity()
            (act): Identity()
          )
          (drop_path): Identity()
        )
        (2): SqueezeExcite(
          (conv_reduce): Conv2d(256, 64, kernel_size=(1, 1), stride=(1, 1))
          (act1): ReLU(inplace=True)
          (conv_expand): Conv2d(64, 256, kernel_size=(1, 1), stride=(1, 1))
          (gate): Sigmoid()
        )
        (3): Conv2d(256, 256, kernel_size=(1, 1), stride=(1, 1))
      )
      (skip_path): Identity()
    )
  )
  (norm): BatchNorm2d(256, eps=1e-05, momentum=0.1, affine=True, track_running_stats=True)
  (qconv1): Conv2d(1024, 256, kernel_size=(1, 1), stride=(1, 1))
  (qconv2): Conv2d(256, 1024, kernel_size=(1, 1), stride=(1, 1))
  (patch2vec): Conv2d(1024, 256, kernel_size=(1, 1), stride=(1, 1))
  (vec2patch): Vec2Patch(
    (relu): LeakyReLU(negative_slope=0.2, inplace=True)
    (embedding): Linear(in_features=256, out_features=1024, bias=True)
    (to_patch): Fold(output_size=(14, 14), kernel_size=(1, 1), dilation=1, padding=(0, 0), stride=(1, 1))
  )
  (mbconv): MBConv(
    (main_path): Sequential(
      (0): BatchNorm2d(256, eps=1e-05, momentum=0.1, affine=True, track_running_stats=True)
      (1): DepthwiseSeparableConv(
        (conv_dw): Conv2d(256, 256, kernel_size=(3, 3), stride=(1, 1), padding=(1, 1), groups=256, bias=False)
        (bn1): BatchNormAct2d(
          256, eps=1e-05, momentum=0.1, affine=True, track_running_stats=True
          (drop): Identity()
          (act): GELU(approximate='none')
        )
        (se): Identity()
        (conv_pw): Conv2d(256, 256, kernel_size=(1, 1), stride=(1, 1), bias=False)
        (bn2): BatchNormAct2d(
          256, eps=1e-05, momentum=0.1, affine=True, track_running_stats=True
          (drop): Identity()
          (act): Identity()
        )
        (drop_path): Identity()
      )
      (2): SqueezeExcite(
        (conv_reduce): Conv2d(256, 64, kernel_size=(1, 1), stride=(1, 1))
        (act1): ReLU(inplace=True)
        (conv_expand): Conv2d(64, 256, kernel_size=(1, 1), stride=(1, 1))
        (gate): Sigmoid()
      )
      (3): Conv2d(256, 256, kernel_size=(1, 1), stride=(1, 1))
    )
    (skip_path): Identity()
  )
  (final_in): Conv2d(1024, 256, kernel_size=(1, 1), stride=(1, 1))
  (final_in2): Conv2d(256, 1024, kernel_size=(1, 1), stride=(1, 1))
  (final_out): Conv2d(1024, 2048, kernel_size=(1, 1), stride=(1, 1))
)
Loading data
=> PRW-train loaded:
|  dataset  |  split  |  num_images  |  num_boxes  |  num_labeled_pids  |  min_labeled_pid  |  max_labeled_pid  |  unlabeled_pid  |
|:---------:|:-------:|:------------:|:-----------:|:------------------:|:-----------------:|:-----------------:|:---------------:|
|    PRW    |  train  |    19385     |    24742    |        626         |         1         |        650        |      5555       |
…
